static/weights/exp3/best.pt (torch, 339871 bytes, 6 tensors)

head.0.weight f4 [64, 3, 7, 7]
-0.07224683 0.017110167 -0.070797786 0.0599397 0.07820417 0.018829895 -0.03069938 -0.08299483
0.057148714 -0.019947741 -0.04005565 -0.0205643 0.07243357 -0.08010299 0.056902308 -0.06575216
-0.081760794 -0.008539513 0.06794042 0.041386105 -0.00870938 0.071334004 0.0011958263 0.03436413
0.00011693257 0.010625512 -0.06312913 -0.08354599 0.06365068 0.0022308584 -0.02701152 0.060007144
-0.071893394 0.011779052 -0.05614185 -0.07238972 -0.0181107 -0.024575122 0.043941252 -0.004459485
0.054961625 -0.031257458 -0.065373845 -0.04076601 -0.025581352 -0.022807036 0.044288836 0.0777218
0.021198642 0.00631234 -0.030015094 0.05603061 0.0045646317 -0.034770526 0.034055803 -0.0429553
0.06592232 0.09042305 0.087297805 0.08481809 0.06508222 -0.019329552 0.008271756 0.051210724
-0.05029612 0.03874809 -0.063128315 -0.07100994 -0.03722618 0.013827188 -0.027655812 0.05885948
-0.060820147 0.08605208 0.09159355 -0.05556767 -0.029048989 -0.05567322 -0.039073635 -0.028500829
0.016618349 0.01583681 0.092415094 0.075649 -0.016775554 0.018167915 0.003377443 -0.02558883
0.0046977582 -0.0249687 -0.06078189 0.065537624 -0.045471363 0.016964054 0.0615739 -0.022328058
0.046607614 -0.0015045155 0.04118123 -0.06143359 0.032725826 0.06692838 -0.029045053 -0.05224568
-0.06919282 -0.01377976 -0.014097492 -0.053710595 -0.03050569 0.05801213 0.0148840565 -0.073041946
-0.07349253 0.058475647 0.042368952 0.061603453 -0.026932519 0.007809539 -0.046700884 0.074983455
-0.02053743 -0.006168064 0.07833695 -0.049181573 0.01969511 0.009167148 -0.014613972 0.0814993
0.06423547 0.020312373 -0.06148296 0.026063008 0.0861838 0.03363073 0.07816501 0.009092718
-0.006770625 0.009127137 -0.066704825 -0.051293787 0.007838899 0.025249962 0.060078405 -0.011744693
0.0788576 -0.030467702 0.0054285307 0.004607248 0.0434974 -0.0028516527 -0.007846559 -0.05544338
-0.07733011 -0.048626844 0.053479582 0.0016679859 -0.057759542 -0.050871603 0.032181032 -0.038945626
0.0501676 0.033072114 0.038590696 -0.013499473 0.0300631 0.0821718 0.0016387808 -0.035535503
-0.03376765 -0.018174477 0.040670987 0.07174014 -0.008683971 -0.039700855 -0.025164928 0.0033701002
0.05724603 0.04237901 -0.052040733 0.067074105 -0.04513578 -0.03281104 0.07317036 -0.027246332
-0.0005958013 0.048992466 0.027978221 0.027939536 0.07719357 0.066752404 -0.018442359 -0.07034022
-0.042716157 -0.037295632 0.08246844 0.058072854 0.065801434 0.0275794 -0.06554455 0.021107532
0.062449023 0.011462894 0.04588833 0.048750687 0.028880542 -0.019864347 -0.07434388 0.009077269
-0.0034491238 0.053298753 0.00584153 -0.06898579 0.02800614 0.052051146 -0.081069864 0.021855462
-0.07296325 -0.016387979 -0.06872616 0.030189244 -0.010676558 -0.0034774216 -0.04308105 -0.039726887
0.009501675 0.05496224 -0.043021325 0.029883364 -0.032210413 -0.07533355 0.024198938 -0.075398855
-0.057904836 -0.0066188904 -0.04096356 -0.021666013 0.06900329 -0.057502646 -0.059289783 0.01999564
-0.00905023 -0.009418491 -0.0010224368 0.06848368 0.03038607 -0.011148131 -0.078567915 0.06733269
0.03879223 -0.040002473 -0.024221933 0.03187804 -0.06401497 -0.074061036 -0.06534363 -0.073230065
00000000: 25f6 93bd 9f2a 8c3c 6efe 90bd 5583 753d
00000010: 8229 a03d 2741 9a3c 447d fbbc 32f9 a9bd
00000020: c514 6a3d 7269 a3bc 6511 24bd 7676 a8bc
00000030: 0d58 943d 090d a4bd 6512 693d 12a9 86bd
00000040: 3472 a7bd 50e9 0bbc 5924 8b3d 7a84 293d
00000050: cab1 0ebc 9017 923d 46bd 9c3a 67c1 0c3d
00000060: b239 f538 a116 2e3c d849 81bd 291a abbd
00000070: 4a5b 823d 9833 123b 4347 ddbc 0dca 753d
00000080: d83c 93bd edfc 403c fff4 65bd 1041 94bd
00000090: e45c 94bc c451 c9bc befb 333d df20 92bb
000000a0: 711f 613d d207 00bd b9e2 85bd 42fa 26bd
000000b0: fc8f d1bc d2d5 babc 3668 353d 9b2c 9f3d
000000c0: c6a8 ad3c bfd7 ce3b 37e2 f5bc 5a80 653d
000000d0: e892 953b 8a6b 0ebd 197e 0b3d e6f1 2fbd
000000e0: 4802 873d b82f b93d 31c9 b23d 1bb5 ad3d
000000f0: d449 853d 0259 9ebc 4286 073c 56c2 513d
00000100: 4e03 4ebd 51b6 1e3d 6b49 81bd a96d 91bd
00000110: 7b7a 18bd 6e8b 623c 718e e2bc a316 713d
00000120: 8c1e 79bd 133c b03d 6695 bb3d ed9a 63bd
00000130: 25f8 edbc 9a09 64bd ad0b 20bd 927a e9bc
00000140: 3423 883c 33bc 813c 2044 bd3d dded 9a3d
00000150: e36c 89bc e1d4 943c 1758 5d3b aa9f d1bc
00000160: a7ef 993b 298b ccbc 6ef6 78bd 9738 863d
00000170: 2e40 3abd 33f8 8a3c ea34 7c3d 55e9 b6bc
00000180: a0e7 3e3d 2a33 c5ba a6ad 283d caa1 7bbd
00000190: 840b 063d bf11 893d e4ef edbc 91ff 55bd
000001a0: f7b4 8dbd 81c4 61bc 2bf9 66bc a4ff 5bbd
000001b0: 12e7 f9bc 219e 6d3d 42dc 733c 0497 95bd
000001c0: 4083 96bd 2984 6f3d 118b 2d3d e753 7c3d
000001d0: 96a1 dcbc 29e7 ff3b 6d49 3fbd ed90 993d
000001e0: 1d3e a8bc 791d cabb 1f6f a03d 9e72 49bd
000001f0: a457 a13c ce31 163c 716f 6fbc 1be9 a63d
00000200: e38d 833d 2266 a63c 8ed5 7bbd 1782 d53c
00000210: 2281 b03d 60c0 093d fa14 a03d a0f9 143c
00000220: 1edc ddbb fd89 153c 8a9c 88bd 6f19 52bd
00000230: ba6e 003c 02d9 ce3c c614 763d d06c 40bc
00000240: 1880 a13d 6797 f9bc d1e1 b13b 66f8 963b
00000250: 542a 323d cbe2 3abb db8e 00bc 9918 63bd
00000260: 405f 9ebd f12c 47bd 680d 5b3d 52a0 da3a
00000270: 4595 6cbd be5e 50bd 42d0 033d 7385 1fbd
00000280: 8b7c 4d3d a076 073d 4711 1e3d e52c 5dbc
00000290: e446 f63c b049 a83d 5ccc d63a ad8d 11bd
000002a0: f34f 0abd a4e2 94bc 9f96 263d 7fec 923d
000002b0: 3747 0ebc 5d9d 22bd ae26 cebc e6dc 5c3b
000002c0: d07a 6a3d 9d95 2d3d aa28 55bd 265e 893d
000002d0: 4ce0 38bd de64 06bd 57da 953d b333 dfbc
000002e0: 8c2f 1cba 53ac 483d 9532 e53c 74e1 e43c
000002f0: aa17 9e3d 7cb5 883d 6e14 97bc 890e 90bd
00000300: 23f7 2ebd 4ec3 18bd 37e5 a83d cddd 6d3d
00000310: e7c2 863d 32ee e13c 393c 86bd b4e9 ac3c
00000320: 8cca 7f3d ddce 3b3c 67f5 3b3d cdae 473d
00000330: e396 ec3c 8eba a2bc 9b41 98bd d3b8 143c
00000340: b20a 62bb cb4f 5a3d 4e6a bf3b 6c48 8dbd
00000350: 226d e53c 9533 553d f507 a6bd 3a0a b33c
00000360: c26d 95bd 1540 86bc 4dc0 8cbd 6f4f f73c
00000370: bbec 2ebc 74e5 63bb c175 30bd a9b8 22bd
00000380: eaac 1b3c 1620 613d 2137 30bd f5cd f43c
00000390: 11ef 03bd 7a48 9abd da3c c63c b76a 9abd
000003a0: 9f2d 6dbd 47e3 d8bb 68c9 27bd ec7c b1bc
000003b0: 9951 8d3d e587 6bbd d8d9 72bd e5cd a33c
000003c0: 6a47 14bc 0450 1abc 4903 86ba 2c41 8c3d
000003d0: 35ec f83c a7a6 36bc 37e8 a0bd b9e5 893d
000003e0: 9ae4 1e3d a2d9 23bd 136d c6bc 8c92 023d
000003f0: 481a 83bd 50ad 97bd e2d2 85bd a5f9 95bd

head.0.bias f4 [64]
0.05052376 -0.060193606 -0.06955291 0.074219085 0.05837353 0.023456428 0.04809617 0.023493197
-0.063660786 -0.0032288262 -0.049037118 -0.041692633 0.11251482 0.08424478 -0.034589875 0.0029544453
-0.009134577 -0.058153763 0.14201632 0.15049112 -0.012500756 0.09395295 -0.013517442 0.043710668
0.07176471 -0.008262761 0.043642532 0.026982198 0.112316206 0.010505968 -0.050150514 -0.027524428
0.006914063 -0.028984373 0.07645617 0.040313706 0.021780051 0.0039201984 -0.023969168 0.02400521
0.044070084 -0.028216707 0.05068147 0.04044837 -0.060446184 -0.06599776 0.02542465 0.14634447
0.050135717 -0.03806736 -0.071406685 0.06381769 0.045622423 -0.04255065 0.06771529 -0.03375675
0.010664228 0.03508683 0.08059298 0.0018376258 -0.07076059 -0.0033842206 -0.0018082026 0.074343875
00000000: 01f2 4e3d 928d 76bd c271 8ebd 2d00 983d
00000010: 1519 6f3d b227 c03c 7d00 453d ce74 c03c
00000020: 9660 82bd b79a 53bb 25db 48bd e5c5 2abd
00000030: 2c6e e63d 8788 ac3d 1dae 0dbd 5e9f 413b
00000040: 31a9 15bc a432 6ebd ba6c 113e 581a 1a3e
00000050: f9cf 4cbc 676a c03d 4378 5dbc f509 333d
00000060: 60f9 923d 8860 07bc 83c2 323d c509 dd3c
00000070: 0a06 e63d 3921 2c3c a06a 4dbd e97a e1bc
00000080: 5d8f e23b a370 edbc 0d95 9c3d fc1f 253d
00000090: 146c b23c 0275 803b fd5a c4bc 93a6 c43c
000000a0: d582 343d b926 e7bc 6097 4f3d 31ad 253d
000000b0: 6b96 77bd d529 87bd 5b47 d03c 53db 153e
000000c0: 1c5b 4d3d 85ec 1bbd ab3d 92bd d9b2 823d
000000d0: 94de 3a3d 9749 2ebd 50ae 8a3d 8544 0abd
000000e0: 04b9 2e3c 35b7 0f3d ef0d a53d 7ddc f03a
000000f0: eeea 90bd cdc9 5dbb 3601 edba 9a41 983d

head.2.weight f4 [128, 64, 3, 3]
0.004730877 0.036868315 0.010255096 -0.017298516 -0.038572304 0.032011848 -0.014865213 0.03295165
-0.02680014 0.025134373 0.021317419 -0.018294895 -0.0015037564 -0.027858049 0.0011038599 -0.0006406892
0.036178943 -0.018900316 0.0041599767 0.029204473 -0.014224601 -0.03298581 0.0027551467 -0.034020938
0.01285514 0.012855624 -0.027811354 0.011474519 0.007965169 -0.017941175 -0.04255606 0.03277399
0.016644746 -0.021317368 -0.0019427715 -0.0008694874 0.026084548 0.016001128 -0.033909533 0.027181532
0.031835698 0.019871365 -0.014632517 -0.014880836 0.013734749 -0.02861948 -0.0016652659 -0.04113535
-0.010047519 -0.03223719 -0.0102916695 0.038446605 0.0038426528 -0.041858364 -0.0065521537 0.022881778
-0.0068843574 -0.02244342 -0.03745298 0.033288434 0.04054157 0.031257547 0.030958831 0.021351831
-0.016995149 -0.036565818 0.03634582 -0.018300321 -0.026898315 -0.027610067 -0.027423702 -0.0110405935
-0.036666334 -0.0073197754 0.03343352 -0.0142636895 0.02461312 -0.0052461224 0.037213508 -0.009391847
-0.034488056 0.019866602 0.03733638 0.025484042 0.018317677 -0.0027643368 0.04381148 0.01433783
0.022483008 0.053598277 -0.038448386 -0.031503823 0.03183539 -0.038225785 -0.012269304 0.014712225
-0.016653705 -0.043228775 0.0035254646 -0.031200726 -0.029688621 -0.01631678 -0.017786177 -0.036524512
0.0052328096 -0.031608492 0.0021621492 -0.037568517 0.03308194 -0.0006587329 -0.012955355 0.030151034
-0.030552296 -0.0025355306 -0.011277378 0.024722226 -0.019681081 0.023919016 -0.034338433 -0.021173708
0.026640909 -0.0060052983 -0.03142148 -0.025285006 -0.024309538 0.010309386 0.013697328 -0.018100962
0.01895911 -0.03040147 -0.01046273 -0.019086018 -0.00015710309 -0.029528745 0.008894759 0.023860944
-0.016974248 -0.028747452 -0.032138146 -0.027707187 -0.011633532 -0.018697133 0.035697516 0.0017663868
-0.036168467 0.02576314 0.00798375 -0.023674896 0.026081795 -0.026306432 0.021584209 0.02262965
-0.004322499 -0.030915929 0.022873968 0.031569645 0.022819169 0.015775368 0.018561391 -0.021045681
-0.039016634 -0.04357505 -0.014542927 -0.023464149 0.011351229 -0.03470864 -0.0022559515 -0.043737054
0.022861216 -0.044989865 0.0028155784 -0.041821733 -0.01403748 0.005447294 -0.015937021 -0.030434834
-0.018034475 -0.038839735 -0.00055285473 0.003372049 0.014540679 0.037720796 0.001050231 0.027988443
-0.0394819 -0.017729828 -0.035526 -0.009379284 -0.019056568 0.02048833 0.018422326 -0.00016496508
0.012371622 -0.01980299 -0.0266543 0.015489253 -0.03927749 0.0026513357 -0.0077108718 -0.020507798
-0.03334996 -0.018366951 -0.012294861 -0.02095306 -0.03358033 -0.018385923 -0.01727736 -0.008587839
0.018509747 0.030028045 -0.03215022 -0.0009972759 -0.008733405 -0.02702158 0.012336838 -0.023367546
-0.021842632 -0.01990504 0.006027627 0.0040811677 -0.012159465 -0.0065095504 0.039140925 -0.016732685
-0.016197234 -0.0020822636 -0.02220179 -0.018204885 -0.018500218 0.021983365 -0.011159092 0.025095113
0.03333284 0.030004442 -0.006093078 -0.007219986 -0.026629793 -0.03600795 0.0148947975 0.023966467
-0.011716305 -0.012891307 0.040653966 0.0020699871 -0.04222644 -0.008037082 -0.00865489 0.020140497
-0.010540491 0.006568882 0.01783571 -0.019602368 -0.009030056 -0.027199103 -0.007217864 -0.009279229
00000000: 7905 9b3b 3b03 173d fd04 283c 9eb5 8dbc
00000010: fefd 1dbd db1e 033d 398d 73bc 4ff8 063d
00000020: f88b dbbc 9ae6 cd3c dea1 ae3c 2ddf 95bc
00000030: b119 c5ba 9036 e4bc 64af 903a edf3 27ba
00000040: 5f30 143d d6d4 9abc 6a50 883b 383e ef3c
00000050: 4d0e 69bc 211c 07bd b18f 343b 8a59 0bbd
00000060: 5d9e 523c 65a0 523c a3d4 e3bc 9fff 3b3c
00000070: 5780 023c 5ff9 92bc 434f 2ebd 053e 063d
00000080: 905a 883c c3a1 aebc 98a4 feba 50ee 63ba
00000090: 43af d53c cc14 833c b9e4 0abd ceab de3c
000000a0: 2666 023d 46c9 a23c 39bd 6fbc c0ce 73bc
000000b0: b607 613c 6673 eabc 0d45 daba 8a7d 28bd
000000c0: 599e 24bc 250b 04bd 649e 28bc 307a 1d3d
000000d0: 04d5 7b3b ad73 2bbd 73b3 d6bb 9172 bb3c
000000e0: 2d96 e1bb 43db b7bc 4c68 19bd 7459 083d
000000f0: eb0e 263d ea07 003d 609d fd3c 09ea ae3c
00000100: 6939 8bbc 0ac6 15bd 5bdf 143d 8eea 95bc
00000110: db59 dcbc 822e e2bc aca7 e0bc 9be3 34bc
00000120: 702f 16bd bada efbb 96f1 083d 40b2 69bc
00000130: 74a1 c93c aae7 abbb 316d 183d 43e0 19bc
00000140: 5943 0dbd 49bf a23c 08ee 183d e9c3 d03c
00000150: f40e 963c e029 35bb ab73 333d 38e9 6a3c
00000160: 492e b83c de89 5b3d 0e7c 1dbd 270a 01bd
00000170: d365 023d a492 1cbd 3105 49bc 8b0b 713c
00000180: 5a6d 88bc a810 31bd 7b0b 673b aa98 ffbc
00000190: 8d35 f3bc c5aa 85bc 51b4 91bc ba9a 15bd
000001a0: fd77 ab3b e877 01bd d8b2 0d3b 72e1 19bd
000001b0: ee80 073d d1ae 2cba b342 54bc 4dff f63c
000001c0: cf48 fabc 252b 26bb c0c4 38bc 4486 ca3c
000001d0: 383a a1bc d0f1 c33c 75a6 0cbd 7c74 adbc
000001e0: 093e da3c 18c8 c4bb cfb3 00bd 8022 cfbc
000001f0: cc24 c7bc b3e8 283c c26a 603c 7848 94bc
00000200: 2350 9b3c 810c f9bc df6b 2bbc 485a 9cbc
00000210: 0abc 24b9 44e6 f1bc 53bb 113c 0778 c33c
00000220: 940d 8bbc c77f ebbc 4aa3 03bd 2ffa e2bc
00000230: 929a 3ebc bb2a 99bc 8f37 123d 1b86 e73a
00000240: 6325 14bd 380d d33c 46ce 023c dbf1 c1bc
00000250: 7da9 d53c 9680 d7bc 5ed1 b03c d161 b93c
00000260: c0a3 8dbb 6743 fdbc 3062 bb3c 2c4f 013d
00000270: 44ef ba3c 583b 813c 0f0e 983c fe67 acbc
00000280: e8cf 1fbd c07b 32bd 7545 6ebc e337 c0bc
00000290: 81fa 393c a62a 0ebd 96d8 13bb a025 33bd
000002a0: 7247 bb3c 4b47 38bd 9185 383b 444d 2bbd
000002b0: 75fd 65bc 377f b23b 5b8e 82bc 7952 f9bc
000002c0: 09bd 93bc 6a16 1fbd 74ed 10ba 98fd 5c3b
000002d0: 073c 6e3c 1f81 1a3d e8a7 893a 0548 e53c
000002e0: c6b7 21bd 253e 91bc b683 11bd 92ab 19bc
000002f0: 851c 9cbc 24d7 a73c 6bea 963c 7afa 2cb9
00000300: 58b2 4a3c e139 a2bc 1e5a dabc a3c6 7d3c
00000310: 6fe1 20bd 08c2 2d3b 7bab fcbb f8ff a7bc
00000320: f899 08bd 4a76 96bc 6270 49bc c0a5 abbc
00000330: 878b 09bd 139e 96bc 4089 8dbc 02b4 0cbc
00000340: c1a1 973c 60fd f53c f3af 03bd 07b7 82ba
00000350: 8e16 0fbc 5c5c ddbc 7320 4a3c 4c6d bfbc
00000360: 52ef b2bc e50f a3bc 6683 c53b 51bb 853b
00000370: 7e38 47bc 114e d5bb 3c52 203d fc12 89bc
00000380: 10b0 84bc 9676 08bb 87e0 b5bc 6922 95bc
00000390: c58d 97bc 7516 b43c a0d4 36bc 4494 cd3c
000003a0: 0488 083d e0cb f53c 71a8 c7bb a295 ecbb
000003b0: b926 dabc 127d 13bd 4f09 743c 5355 c43c
000003c0: bff5 3fbc 0f36 53bc c684 263d 9fa8 073b
000003d0: a2f5 2cbd f7ad 03bc 3dcd 0dbc affd a43c
000003e0: 06b2 2cbc c73f d73b 321c 923c 2595 a0bc
000003f0: cdf2 13bc a7d0 debc d583 ecbb e807 18bc

head.2.bias f4 [128]
0.0096104285 -0.025079167 -0.016230023 0.0426737 0.03298913 0.015726833 0.042045604 -0.026867729
-0.032794386 -0.0023194382 0.008109312 0.029686637 0.025017807 0.026051363 0.028159417 -0.0075013563
-0.0034301835 -0.027194161 -0.008429954 -0.012416372 0.0002504337 0.027463712 0.016864737 -0.0018037341
-0.02713998 0.018095642 0.03829012 0.024673525 0.007381916 0.019365821 -0.0077136518 -0.027172582
-0.04289443 0.026556008 0.007993994 -0.02576767 -0.018065844 0.0024842224 -0.026650203 -0.030271428
-0.03251232 0.01943807 0.018168855 -0.023653211 0.009430449 -0.017418727 -0.011721025 -0.00085932174
-0.005257279 0.013845166 0.023231406 0.007669993 0.015369326 -0.016229915 -0.024699809 -0.032140967
-0.0006556823 0.006857007 -0.03102548 -0.018614523 0.008942568 0.00605815 0.016579136 -0.0077561284
-0.000762871 -0.0046881028 -0.026011195 -0.017291322 -0.01709352 -0.022911994 -0.01227014 0.006116039
-0.018041061 0.03219313 -0.0038541853 -0.036008302 0.028209545 -0.03059433 0.035171896 0.020167055
0.013947685 0.0021471742 -0.0013893466 -0.021908825 0.025736975 -0.042920142 0.023496108 -0.03720774
-0.0035261107 -0.0023769932 -0.03069335 -0.029928876 -0.0039627044 0.0056988145 0.010179536 -0.017785847
0.043224428 0.012699994 -0.025001016 0.0035691394 -0.027017815 -0.022571068 -0.037385795 -0.04026463
0.03733657 -0.0035961582 0.013152876 0.02471902 -0.0017783893 0.04064013 -0.043456424 -0.017243482
0.0025845016 0.03197257 0.011935675 -0.034864075 -0.031959105 -0.014640664 -0.0077542523 0.034871582
-0.03817729 0.036082417 0.01692314 -0.002048551 -0.0052108457 -0.015979627 0.029627029 0.026718605
00000000: 0f75 1d3c d372 cdbc d3f4 84bc 9eca 2e3d
00000010: 9c1f 073d 8fd5 803c 0338 2c3d b619 dcbc
00000020: 6853 06bd b701 18bb ebdc 043c 6431 f33c
00000030: 25f2 cc3c ab69 d53c 94ae e63c f0cd f5bb
00000040: eecc 60bb 4ac6 debc ca1d 0abc 0a6e 4bbc
00000050: a44c 8339 94fb e03c eb27 8a3c 466b ecba
00000060: aa54 debc 503d 943c 1ad6 1c3d 2220 ca3c
00000070: 00e4 f13b 12a5 9e3c cdc2 fcbb 0999 debc
00000080: 12b2 2fbd fc8b d93c 3ef9 023c b816 d3bc
00000090: d2fe 93bc 56ce 223b 8751 dabc c9fb f7bc
000000a0: a32b 05bd 963c 9f3c dad6 943c 61c4 c1bc
000000b0: 2c82 1a3c b8b1 8ebc 8b09 40bc 1b44 61ba
000000c0: 4145 acbb d6d6 623c ca4f be3c 9154 fb3b
000000d0: a0cf 7b3c 99f4 84bc 4157 cabc 3fa6 03bd
000000e0: 18e2 2bba beb0 e03b 2629 febc 7c7d 98bc
000000f0: d983 123c 7283 c63b f8d0 873c 1f27 febb
00000100: 68fb 47ba a89e 99bb 6e15 d5bc 88a6 8dbc
00000110: b607 8cbc efb1 bbbc b308 49bc 0e69 c83b
00000120: d9ca 93bc f2dc 033d 8096 7cbb 717d 13bd
00000130: b417 e73c f6a0 fabc 6810 103d 6135 a53c
00000140: d584 643c 9bb7 0c3b bc1a b6ba 237a b3bc
00000150: 59d6 d23c 08cd 2fbd e97a c03c 2567 18bd
00000160: 5216 67bb 54c7 1bbb 9f70 fbbc 672d f5bc
00000170: 93d9 81bb 1fbd ba3b 12c8 263c a0b3 91bc
00000180: 190c 313d a313 503c eece ccbc 39e8 693b
00000190: 7754 ddbc f6e6 b8bc d921 19bd 86ec 24bd
000001a0: 3bee 183d 86ad 6bbb 297f 573c 8b7f ca3c
000001b0: d818 e9ba 4476 263d 5dff 31bd 3442 8dbc
000001c0: be60 293b abf5 023d d98d 433c a2cd 0ebd
000001d0: 8de7 02bd 65df 6fbc 6217 febb 81d5 0e3d
000001e0: ca5f 1cbd 28cb 133d 66a2 8a3c fc40 06bb
000001f0: bebf aabb b5e7 82bc 62b4 f23c fae0 da3c

fc.weight f4 [2, 512]
-0.09660753 -0.072729975 0.07552807 0.09798688 0.10629617 0.09503596 -0.062092874 -0.06078168
0.050388265 0.024162551 -0.059206866 -0.029048879 0.1268888 0.07580037 -0.07647408 -0.10714553
0.04832273 -0.004335431 -0.04744519 -0.025199465 0.01210301 -0.026871076 -0.005933916 -0.020494979
0.14560768 0.07557025 -0.07247909 -0.08308735 0.0100826705 -0.02316277 -0.013607743 0.012686602
0.06758276 0.07492202 -0.011327781 -0.07860636 0.07419397 0.033035025 -0.06871559 -0.036042478
0.11745624 0.09154637 -0.010933118 -0.11099361 -0.064829156 0.009490344 -0.00831803 0.014276344
0.06511459 -0.003635375 -0.031336382 -0.06544423 -0.0111540165 -0.012239815 -0.017845394 0.0029543752
0.0011636387 -0.027610388 0.014135998 0.0012365927 0.124977775 0.10579978 -0.12265983 -0.08355805
0.14533892 0.09763823 -0.038027897 -0.11248323 -0.16133878 -0.12358251 0.08572563 0.12586129
0.100798294 0.06731179 -0.05985886 -0.11763094 0.04303321 0.026114393 -0.028254714 0.025084792
-0.0717149 -0.04955479 0.06139444 0.052812908 -0.029750127 0.013219438 -0.013803394 -0.026036317
0.10348459 0.05405524 -0.08134166 -0.1299757 0.15161669 0.06274463 -0.10224339 -0.104131915
0.056978796 0.022305563 -0.06038241 -0.07917888 -0.057788894 -0.0008254316 0.05246913 -0.011864178
0.053574678 0.028169023 -0.034481615 -0.015883982 0.038041007 0.009232459 -0.0047243806 -0.0325755
-0.071208924 -0.10049835 0.014442638 0.1043992 0.16559541 0.1031952 -0.06175195 -0.081858754
0.10740856 0.10235666 -0.056107096 -0.10325972 -0.13742812 -0.089247994 0.070518546 0.07759672
0.04008747 0.022384565 -0.015654407 -0.029229226 -0.1342094 -0.108795926 0.11738053 0.079644985
0.023828138 0.014039419 0.033480637 0.005784792 -0.11816193 -0.06358941 0.074949816 0.056471903
-0.0383945 -0.007254832 -0.016309083 0.003303115 -0.073118515 -0.04186336 0.04758962 0.037376247
0.13019289 0.05122671 -0.0302424 -0.11480028 -0.046035357 -0.037329875 0.051782344 0.034164555
-0.0598655 -0.04241877 0.06476021 0.08656275 0.03451657 -0.033477347 0.021296838 -0.020481747
0.012431962 0.045448974 -0.0465836 -0.033451635 0.019394685 0.05006882 -0.049311895 -0.0052639656
-0.011616681 -0.027840886 0.027573455 0.02607249 -0.08384468 -0.0612382 0.04837162 0.032494314
-0.008080821 0.06257574 -0.026417632 -0.05962318 0.0609506 0.030697946 -0.01625612 -0.0028587037
0.0026117258 -0.039942212 0.004886624 -0.040310375 0.06734672 0.043245684 -0.006621327 -0.10082022
0.08619068 0.05781631 -0.01272882 -0.045480546 -0.09008556 -0.061801363 0.03592568 0.11949461
0.055898257 -0.020210283 -0.039431892 0.0015773916 0.011941726 -0.058067482 0.017260415 0.03057085
-0.04994694 -0.013735592 0.01855584 0.063779764 -0.13948725 -0.037441205 0.09852154 0.11918091
0.09690315 0.04780622 -0.08657521 -0.043240357 -0.06726267 -0.06973487 0.083275266 0.03244515
-0.11654904 -0.0516383 0.051065326 0.027338166 -0.063954815 -0.042837597 0.020744756 0.075584725
-0.088385604 -0.10756181 0.022472927 0.116062954 -0.1022875 -0.04179132 0.08859101 0.07468793
-0.1552297 -0.06093803 0.10749014 0.076894805 -0.04304801 0.00095079414 0.0061885375 0.02221155
00000000: 2bda c5bd 74f3 94bd 76ae 9a3d 58ad c83d
00000010: ceb1 d93d 37a2 c23d 1955 7ebd 36f6 78bd
00000020: ed63 4e3d 8bf0 c53c e682 72bd eaf7 edbc
00000030: 23ef 013e 393d 9b3d 719e 9cbd 1e6f dbbd
00000040: 0eee 453d 3b10 8ebb e355 42bd 1c6f cebc
00000050: b44b 463c bb20 dcbc 4c71 c2bb 16e5 a7bc
00000060: 2e1a 153e 93c4 9a3d eb6f 94bd b329 aabd
00000070: c931 253c d9bf bdbc 03f3 5ebc 77db 4f3c
00000080: d468 8a3d b770 993d 2898 39bc 5ffc a0bd
00000090: 02f3 973d bc4f 073d c2ba 8cbd 47a1 13bd
000000a0: e68c f03d aa7c bb3d d220 33bc 9e50 e3bd
000000b0: 26c5 84bd 637d 1b3c 5948 08bc 54e7 693c
000000c0: cc5a 853d 793f 6ebb 945a 00bd a007 86bd
000000d0: 56bf 36bc 8189 48bc 8130 92bc 319e 413b
000000e0: 3c85 983a 2e2f e2bc ac9a 673c 2a15 a23a
000000f0: 59f4 ff3d 8ead d83d 1435 fbbd 7c20 abbd
00000100: bad3 143e 8df6 c73d 24c3 1bbd 9c5d e6bd
00000110: fe35 25be d418 fdbd eb90 af3d c8e1 003e
00000120: 566f ce3d c4da 893d 902e 75bd 7ee8 f0bd
00000130: 9743 303d daed d53c 6e76 e7bc 9f7e cd3c
00000140: 43df 92bd f7f9 4abd bc78 7b3d 5952 583d
00000150: 8ab6 f3bc 5796 583c a127 62bc 1d4a d5bc
00000160: bbef d33d 0769 5d3d 7596 a6bd 5a18 05be
00000170: 6841 1b3e 4280 803d fc64 d1bd 1d43 d5bd
00000180: 9962 693d 28ba b63c 8c53 77bd 8928 a2bd
00000190: 0cb4 6cbd c761 58ba dfe9 563d f861 42bc
000001a0: 1f71 5b3d b9c2 e63c 983c 0dbd 201f 82bc
000001b0: e3d0 1b3d bd43 173c face 9abb e36d 05bd
000001c0: fcd5 91bd 14d2 cdbd d0a0 6c3c 3fcf d53d
000001d0: d891 293e 0158 d33d 9def 7cbd 90a5 a7bd
000001e0: 05f9 db3d 5ea0 d13d 8ed0 65bd d579 d3bd
000001f0: f5b9 0cbe a7c7 b6bd 076c 903d 07eb 9e3d
00000200: c232 243d d65f b73c ac3d 80bc 2172 efbc
00000210: 306e 09be 66d0 debd 3465 f03d e91c a33d
00000220: 3a33 c33c 9705 663c fe22 093d 5a8e bd3b
00000230: e2fe f1bd 2a3b 82bd 4a7f 993d 154f 673d
00000240: 8d43 1dbd f1b9 edbb a09a 85bc 1379 583b
00000250: 29bf 95bd ea78 2bbd 55ed 423d d617 193d
00000260: 4951 053e 19d3 513d e9be f7bc 691c ebbd
00000270: 928f 3cbd 36e7 18bd b919 543d 22f0 0b3d
00000280: 8735 75bd 4ebf 2dbd 00a1 843d d047 b13d
00000290: 3f61 0d3d 8b1f 09bd b576 ae3c 56c9 a7bc
000002a0: 6eaf 4b3c b428 3a3d 72ce 3ebd 9504 09bd
000002b0: 9ae1 9e3c f714 4d3d 45fb 49bd 587d acbb
000002c0: e453 3ebc 9212 e4bc bae1 e13c f995 d53c
000002d0: c2b6 abbd e8d4 7abd 5221 463d c218 053d
000002e0: 6b65 04bc b627 803d ca69 d8bc 7037 74bd
000002f0: 56a7 793d 427a fb3c 8e2b 85bc 1759 3bbb
00000300: 7d29 2b3b 729a 23bd f91f a03b 7e1c 25bd
00000310: 14ed 893d 6322 313d b7f7 d8bb d57a cebd
00000320: bd84 b03d ccd0 6c3d 8a8c 50bc cf49 3abd
00000330: c77e b8bd 6d23 7dbd ce26 133d 97b9 f43d
00000340: 92f5 643d 0990 a5bc 5683 21bd 7bc0 ce3a
00000350: 3ba7 433c 2bd8 6dbd b765 8d3c b86f fa3c
00000360: 2a95 4cbd 400b 61bc 6b02 983c f79e 823d
00000370: bfd5 0ebe f35b 19bd a9c5 c93d 1f15 f43d
00000380: 2975 c63d 74d0 433d 584e b1bd cd1c 31bd
00000390: 03c1 89bd 28d1 8ebd 398c aa3d 35e5 043d
000003a0: 43b1 eebd af82 53bd e029 513d 4af4 df3c
000003b0: befa 82bd 7a76 2fbd e8f0 a93c 2acc 9a3d
000003c0: 8303 b5bd 5e49 dcbd 2519 b83c 6ab2 ed3d
000003d0: 1c7c d1bd 602d 2bbd 346f b53d fcf5 983d
000003e0: 89f4 1ebe 289a 79bd ca23 dc3d 067b 9d3d
000003f0: 1c53 30bd b73e 793a 37c9 ca3b fff4 b53c

fc.bias f4 [2]
0.045649085 -0.03669407
00000000: 89fa 3a3d 854c 16bd
