static/weights/exp2/best.pt (torch, 339871 bytes, 6 tensors)

head.0.weight f4 [64, 3, 7, 7]
000000 32 6b 1a bd 8f d4 94 bd 23 ff 21 bb ce 8c 81 bd
       -0.037699886 -0.07267105 -0.0024718724 -0.063256845
000010 a4 22 e8 bc 3b 66 c2 3c c6 35 4f 3c 91 10 3c 3d
       -0.02833683 0.023730388 0.012647098 0.045914236
000020 61 a1 60 3d dd a4 82 3d e5 ac 35 3c c7 88 2b bd
       0.054841403 0.063791014 0.011088585 -0.041878488
000030 5d 79 88 3d 56 23 67 3d 61 ae 70 3d 0b 2f 16 3c
       0.06663773 0.056430183 0.05876005 0.009166489
000040 f3 2a 90 3d 00 0c 70 3d ae 41 c2 bc e0 bf 5c 3d
       0.07039442 0.058605194 -0.02371296 0.053893924
000050 45 c1 63 3d 35 99 51 bd 39 e6 11 bd f1 78 68 bd
       0.055604238 -0.0511715 -0.035619948 -0.056755964
000060 25 2e 5a 3d 8a f6 28 3a 0a dc 18 bd 0f 9a 6d bd
       0.053266663 0.00064454286 -0.03731922 -0.05800825
000070 6d fa 91 3c 3e 9f 70 bd 9e 32 9f 3d 71 81 cd 3c
       0.017819608 -0.058745615 0.07773326 0.025086137
000080 31 e3 21 3d 24 41 52 bc f3 c5 d0 bc 45 c4 1d bb
       0.039523307 -0.012832914 -0.025485015 -0.0024073285
000090 20 0d 9e bb c2 8c 7b bd 2e f0 f6 bc f3 d9 71 3d
       -0.004823342 -0.061413534 -0.030143823 0.059045743
0000a0 f3 9c 61 3c 0c 51 10 bd d3 d4 11 3d 4d da 10 3c
       0.01377033 -0.035233542 0.035603356 0.008841109
0000b0 06 1d 8f bd f0 ab 6b bd dd f0 10 bd 86 ba 8c 3b
       -0.06987958 -0.05753702 -0.035385955 0.0042946963
0000c0 d4 b7 9e bd d8 06 19 3d 39 0a 80 bc 6a 62 8f 3d
       -0.07749906 0.037360042 -0.015629875 0.07001193
0000d0 15 a1 70 bc b9 ef 5a bc 7f 36 3a ba 5c f9 9e bd
       -0.014686842 -0.013362818 -0.00071034575 -0.07762405
0000e0 eb 3b a3 3d fc 92 3a 3d c5 9f 4a bd 25 20 66 bc
       0.07970413 0.04555033 -0.049468774 -0.01404575
0000f0 bc eb 30 3d 33 bd 82 3d 45 39 59 3d be 1e 8b 3d
       0.043193564 0.06383743 0.053033132 0.06792973
000100 66 ec 48 bd fe e2 60 bd fe 64 53 bd 4b 6d 1a bd
       -0.049053572 -0.054903977 -0.051609986 -0.037701886
000110 22 d1 56 bd 02 48 a8 3c 0c 9a 91 3d a6 5e 07 3c
       -0.05244554 0.020542149 0.0710946 0.008262312
000120 b3 24 54 3c cf 23 46 3d 28 1d 92 3b 1c d5 d3 3c
       0.012948203 0.048373993 0.004459042 0.025858454
000130 8e e4 8a 3d 9d 0a 00 bd 10 47 bd bb 29 72 01 bc
       0.067818746 -0.03126012 -0.0057762936 -0.007900753
000140 2c 89 b3 bc ec 84 29 3d 9f fd 87 3d fa 90 87 bd
       -0.021915995 0.04138653 0.06640171 -0.06619449
000150 9d 5a 90 3c 74 50 13 3c 82 d3 a2 3d b0 49 cf 3c
       0.017621333 0.0089913495 0.07950498 0.025303692
000160 90 87 e7 bb e4 27 8f 39 d0 80 79 bc 39 02 8e 3d
       -0.007065721 0.00027304806 -0.015228465 0.06934018
000170 a9 76 1a bc 58 96 ef 3c 40 71 2f bc 69 d7 5b bd
       -0.009427705 0.029246494 -0.010708153 -0.053672228
000180 d4 d6 7e bd e6 a6 83 bc 28 01 54 3d a9 90 89 bd
       -0.062216595 -0.016070794 0.051758915 -0.06717045
000190 e3 18 f9 bb 70 13 1f 3d c3 7c 3f bd c9 6d 24 bc
       -0.0076018437 0.038836896 -0.04674984 -0.01003594
0001a0 04 e9 8e bd b6 87 01 3d cd 26 9d 3c b2 54 50 bd
       -0.06978038 0.031623565 0.01918354 -0.05086202
0001b0 d1 96 c4 3c 80 a0 64 3c 02 ee 52 bc 4f 5c 2a bd
       0.023997696 0.013954282 -0.012874128 -0.04159194
0001c0 f4 d7 8d 3d 57 38 38 bd 6c 9a 93 3d 17 31 5e bd
       0.069259554 -0.044975605 0.07207188 -0.054246034
0001d0 c2 bb 90 3d b9 a4 54 bd 38 11 8f 3d f3 bf 4b 3c
       0.07067062 -0.051914904 0.06985706 0.012435901
0001e0 b9 cf f2 3a e9 f8 8d bd d1 2f 4b bd 10 1f f5 3c
       0.0018525041 -0.069322415 -0.04960615 0.029922038
0001f0 ce bb 37 3d 95 71 02 3a f8 ac 8a 3d 1e 72 fc ba
       0.04485684 0.00049760315 0.067712724 -0.0019260084
000200 7f 77 06 bd ff 8e 84 bb d9 07 9f 3d b1 1a 17 bd
       -0.032828804 -0.004045367 0.07765169 -0.03689069
000210 b9 f4 59 3c 0c 6f 5f bd 50 dd e2 bc 81 28 23 3d
       0.013302975 -0.054549262 -0.02769342 0.03983355
000220 49 a6 59 bd 12 a2 29 3d e2 58 87 3d 41 6c bb bb
       -0.053137098 0.041414328 0.0660875 -0.005719692
000230 c6 fd 55 3d 5a 41 c3 3c 8b ae 33 3d d5 7a 6b 3d
       0.05224397 0.023834873 0.04386763 0.05749019
000240 bd f1 5b bd c0 a3 dd bc 80 d4 a3 3c 9b b3 a6 bd
       -0.053697336 -0.027055621 0.019998789 -0.08139726
000250 4a 19 8c bd 62 0e 7a bd 87 ad 32 bc 7f a1 a4 3d
       -0.06840761 -0.061048873 -0.01090563 0.080386154
000260 18 ac 46 bd 0e d3 d9 3c 6c b3 f2 3c de 34 80 bc
       -0.048503965 0.026589897 0.02962657 -0.015650209
000270 db 2c 96 3c b5 23 1f 3d c4 3c 60 bd 10 99 99 3d
       0.018331936 0.038852412 -0.05474545 0.074998975
000280 60 98 1d bd d9 7a 05 3d 90 31 84 3d 3b 7f 3c bd
       -0.038475394 0.03258786 0.06454766 -0.046019774
000290 67 ae 1a 3d 89 3f bc ba 11 73 a1 3b 6a b1 45 bd
       0.03776398 -0.0014362197 0.004927047 -0.0482649
0002a0 0e 76 90 3d c0 f8 38 3b 80 4b 7d 3d 14 78 70 bd
       0.07053767 0.0028224438 0.06183958 -0.058708265
0002b0 3a 28 96 3a 39 e4 82 bd 7d a7 31 bc 9b 54 a5 3d
       0.001145608 -0.06391186 -0.010843155 0.08072778
0002c0 88 72 a6 bd fd fe 30 bd 2d 84 88 bc 4a 25 fd 3b
       -0.08127314 -0.043211926 -0.016664589 0.0077253925
0002d0 fc 6a 81 3d 86 72 00 bd 98 77 83 bd e3 ab 82 3d
       0.06319234 -0.031359218 -0.06419295 0.06380441
0002e0 9b c3 89 3d 26 f5 3c bc 88 e3 b7 bc c7 e4 9b 3c
       0.06726762 -0.011533057 -0.022447363 0.019029988
0002f0 e4 97 b1 3b 5a cb 3d bd eb 48 17 3d 76 0a f7 3b
       0.005419718 -0.04633651 0.036934774 0.007539089
000300 80 e5 29 bd cd ee b9 3c 18 66 53 bd 8e d4 9f bc
       -0.041478634 0.022696877 -0.051611036 -0.019510534
000310 4b 41 3f bd 00 e4 24 3d 2b 3c 94 3d ca 6b bd 3c
       -0.046693128 0.0402565 0.07238039 0.023122687
000320 f2 de a4 3d ff ed 8a 3d 28 55 fa bc 4d a8 4b bd
       0.08050336 0.067836754 -0.030558184 -0.04972105
000330 a0 18 9a bc 09 2c a2 3c a0 2a a3 3c e7 d1 66 bd
       -0.01881057 0.019796388 0.019917786 -0.056352522
000340 bc 69 3e bd a3 64 86 bd 98 4d b2 3c e4 64 93 bd
       -0.046487555 -0.06562164 0.021765515 -0.07196978
000350 77 5e 2d bd 87 22 d9 3c 1b 0c 71 3d 1b db 18 3d
       -0.042326417 0.026505722 0.058849435 0.03731833
000360 19 3f 53 3d 90 66 83 3d b7 37 8c 3d 71 a4 b7 3c
       0.051573846 0.064160466 0.06846564 0.022417279
000370 a4 a0 79 3d e4 97 7d 3d cb d8 92 3d 68 63 47 3d
       0.060944214 0.061912432 0.07170256 0.048678786
000380 72 b7 5c 3d 7b 81 a1 3d 42 35 6f bc e2 d9 cf 3b
       0.053885885 0.078860246 -0.0146001 0.0063431123
000390 c0 bc d6 3b de 2e 00 3d c4 69 b5 3b af 6c 13 bd
       0.0065532625 0.031294696 0.00553629 -0.03599232
0003a0 c2 42 18 bd 60 58 ed 3c a5 4d ee bc f9 d9 43 3d
       -0.03717304 0.028972805 -0.029089758 0.047815297
0003b0 9e 21 8d 3d a6 bc 58 3c 09 9b 9b bd a1 62 37 bd
       0.068911776 0.013228571 -0.0759793 -0.044771794
0003c0 19 0d 9f bd 2b 43 5f bc 1f c2 a7 3d 6d 3c 48 bc
       -0.0776617 -0.013626854 0.081913225 -0.012221438
0003d0 57 2d 3f 3d f2 ee 8e 3d ae 54 fd bc c9 dd 15 3d
       0.0466741 0.06979169 -0.030924167 0.036588464
0003e0 bb 04 57 3d f2 1e 5b 3d 8f d5 24 bd 4c ab 99 3d
       0.052494746 0.05349631 -0.040242728 0.075033754
0003f0 3b fd 4a bd ae bd db 3b 83 e0 a3 3d 78 e4 16 bd
       -0.049557906 0.006705961 0.080018066 -0.03683898

head.0.bias f4 [64]
000000 c8 84 6d 3d 25 36 c3 3c ef 80 94 3c 1a 25 05 bd
       0.05798796 0.023829529 0.018127887 -0.032506086
000010 74 6a bc 3c b9 df 9a 3d f4 62 fe bc 46 5e a1 bd
       0.02299998 0.07562203 -0.031053044 -0.07879309
000020 45 35 97 3b 14 71 8b bd 21 ba a2 bd 17 2f 4f 3d
       0.0046145045 -0.06808677 -0.079456575 0.050582018
000030 9a 98 3c bd 07 bc c2 3c d1 2d 91 bb 78 c8 66 3c
       -0.04604397 0.023771299 -0.0044305106 0.014085881
000040 6e 2c 97 3d 99 c1 2b 3d cf a8 f6 bc a2 7b ee bc
       0.07381521 0.041932676 -0.030109791 -0.029111687
000050 02 e0 41 bb 1c f3 33 bd 24 41 b5 3c 40 f6 f1 3c
       -0.0029582982 -0.04393302 0.022125788 0.029536366
000060 90 a3 11 bd a2 dc 1a bd d1 fb 65 3d 67 d2 51 bd
       -0.035556376 -0.037808068 0.056148354 -0.051226046
000070 05 cd 8c bd 6b d2 26 3c 03 81 89 3d 47 d8 7d bd
       -0.06875042 0.0101820035 0.0671406 -0.061973836
000080 bc 7d 55 bc 85 f9 cb 3c 72 d4 04 3d f5 54 32 bd
       -0.013030466 0.024899254 0.032429166 -0.043538053
000090 62 9e 81 3d 2a 02 93 bd 86 ea 9d 3d f9 79 1d bd
       0.06329037 -0.07178147 0.077107474 -0.0384464
0000a0 58 48 28 bd 7e da 92 3d 56 52 94 bd 0a 8b a6 3c
       -0.041084617 0.0717058 -0.07242267 0.02032997
0000b0 39 1c 93 bc 5c 42 b2 3c 56 bd 3f 3d 49 c3 40 bd
       -0.017957794 0.021760158 0.046811424 -0.04706124
0000c0 ff 32 a7 3d 45 5b 8f bd 7f 59 d8 bc 3a 08 42 3d
       0.081640236 -0.0699983 -0.026409863 0.047371127
0000d0 fc ec 8d bd 71 c0 60 bd 3d c9 a7 bd fc b8 ae bc
       -0.06929967 -0.054871026 -0.0819268 -0.021328442
0000e0 27 f5 92 3c f7 90 38 bd c5 f3 2d bd 2e 37 58 3d
       0.017939163 -0.045060124 -0.042468805 0.052787
0000f0 6c 84 f1 bc 8e d0 ff 3c 26 1a a1 bd 4e b0 5b 3d
       -0.029482089 0.031227376 -0.078663155 0.053634934

head.2.weight f4 [128, 64, 3, 3]
000000 2e 0f da bc 65 88 0c bd d4 74 b7 3c 18 c1 a1 3c
       -0.026618566 -0.034309763 0.022394575 0.019745395
000010 b2 71 12 3c 70 3d ca 3c ff f4 2f 3b 75 ef 24 3d
       0.00893824 0.024687499 0.002684891 0.040267427
000020 d7 28 18 3d 73 ff 1f bc f5 dd e2 3c 2c 62 0c bd
       0.037148323 -0.009765494 0.027693728 -0.03427331
000030 4a 46 ec 3b b5 59 3c bc 93 27 aa bc 03 3f 05 bd
       0.0072105275 -0.011495997 -0.020770824 -0.032530796
000040 33 33 a0 3b 5e cb 82 3b 4f ee bf 3b 3f 7d d4 bc
       0.004888916 0.0039915284 0.005857266 -0.025938628
000050 ee 82 9e bc 0c 6a fc 3c ad be 02 3d 29 75 e6 bc
       -0.019349542 0.030812286 0.031920124 -0.028132038
000060 e0 5e 94 3c bc cb 19 bd 7d 8f f6 ba 93 d5 d0 bc
       0.018111646 -0.037547812 -0.0018811073 -0.025492465
000070 bd 90 d8 3c af 0d 8a 3c 22 eb af bc 91 b0 cc bb
       0.026436204 0.016852228 -0.021474425 -0.0062466343
000080 85 79 9f bb d0 8e a6 3c ae f6 8f 3c 01 ea b9 bc
       -0.004866781 0.02033177 0.01757368 -0.02269459
000090 4b fb ef 3c 67 e2 16 bc 1f 64 c8 bc c6 38 d9 bc
       0.02929463 -0.009209252 -0.024461804 -0.02651633
0000a0 40 1c 00 3d ef 51 2c 3c 95 be bd bc 9e 62 84 bb
       0.03127694 0.010517581 -0.023162166 -0.0040400764
0000b0 b7 ed 12 bd 71 a4 9b 3c 70 d0 11 3c 84 82 83 3b
       -0.035871234 0.01899931 0.008899793 0.0040133614
0000c0 a5 c7 ca 3c 23 41 a2 bc 15 85 8f 3c 11 c5 1c bc
       0.024753401 -0.01980645 0.017519513 -0.009568469
0000d0 56 63 18 bc 83 6f d2 bc c0 a5 88 3c 38 63 d5 3c
       -0.009301027 -0.025687939 0.016680598 0.026048288
0000e0 3b 3c f4 bc e0 3d 52 bc 84 ee d6 3c f5 6e 1d bd
       -0.029813876 -0.012832135 0.02623678 -0.038435895
0000f0 fc fa d1 bc ff 9f 0c 3a 73 92 a5 3c e5 6b b5 3a
       -0.025632374 0.00053644174 0.020211434 0.0013841359
000100 09 f4 8a bc c9 d3 05 3d 73 c4 0d 3d 1b d8 0a bd
       -0.016962068 0.032672677 0.034611177 -0.0338975
000110 ef ba d6 3b 79 e6 06 3d 25 68 d2 3c 45 b9 95 3b
       0.006553046 0.03293464 0.025684426 0.004569205
000120 14 81 05 3d c4 82 2f 3c 4e 34 0e bd 5a 23 91 bb
       0.0325938 0.010712329 -0.03471785 -0.004429263
000130 b7 4d d1 bc bf 29 f9 3c 7a 7e 77 bc 3b 00 29 bd
       -0.025549753 0.030415414 -0.015105838 -0.041259985
000140 69 07 df 3c 5a 12 73 bc 25 9d 72 bc 6d 20 05 bc
       0.027225213 -0.014835918 -0.014807974 -0.008125407
000150 a2 17 12 bd 36 73 1a bd bc 1d a0 bb 8e 8b 8d 3b
       -0.03566707 -0.03770753 -0.004886357 0.0043196147
000160 06 be 1e 3c 4e 5d c3 bc 45 2e f2 3c 61 29 6a bc
       0.00968886 -0.023848202 0.029563079 -0.014292092
000170 01 4a 9a 3a cb 53 f0 bc 25 fc 29 3d cd 08 37 3c
       0.0011771322 -0.02933683 0.04150023 0.011171532
000180 92 97 d1 ba 2e 7c 85 bb fe c9 fa bc 07 0d 0c 3d
       -0.0015990606 -0.0040736413 -0.030613896 0.03419211
000190 ed 00 06 3d 06 c9 90 3a 82 a7 72 bb 40 9d 3e 3b
       0.032715727 0.0011046238 -0.0037026112 0.0029085428
0001a0 38 52 75 3c 19 ab f5 3b c4 a3 1c ba 44 ab 4e 3c
       0.014973216 0.007497203 -0.0005975331 0.012614075
0001b0 f0 f5 67 bc e8 c9 5e bc b0 3a 1f bd 72 54 75 bc
       -0.014157757 -0.013597943 -0.038874328 -0.014973747
0001c0 03 80 fc 3c db 13 06 3d 63 ac c2 bb ef 6e e2 3c
       0.03082276 0.03273378 -0.0059409603 0.027640788
0001d0 5b a8 81 bc 8d f9 3a bb 7d d1 f6 3c 65 8d da 3c
       -0.015827348 -0.0028530092 0.030129189 0.02667875
0001e0 de ac 1b 3d e9 ae 00 3d f3 9b 38 3c 44 14 b6 3c
       0.038006656 0.031416807 0.01126765 0.02222646
0001f0 2e ba f3 ba d9 2b 14 bc 24 71 96 bc df 29 95 3c
       -0.0018594915 -0.009043657 -0.018364497 0.018208442
000200 76 24 5c 3c b2 3c a4 3b d4 a5 c7 bb 76 36 dd bb
       0.013436427 0.0050121183 -0.0060927663 -0.006750877
000210 0d 8e 0f bd 89 ab f9 3c 28 3d 27 bc cb 29 89 bc
       -0.03504758 0.030477302 -0.010207452 -0.016743561
000220 35 70 07 bc 9b 80 b3 bc 6b 5b 79 bb 29 78 8a b9
       -0.008266498 -0.02191191 -0.0038048874 -0.00026410937
000230 9a 10 ba 3c 6a f1 29 3d 02 d6 b2 bb ed 66 bb bc
       0.022712994 0.041489996 -0.0054576406 -0.022876227
000240 30 08 f3 bb 50 ec f0 bc ca 1e 43 3c fd 38 74 3b
       -0.0074167475 -0.029409558 0.011909196 0.0037265413
000250 26 44 f2 3c db 59 13 bc fe 9b f6 3c 74 27 e3 bc
       0.029573511 -0.008993591 0.03010368 -0.027728774
000260 9a 7c fa bb d6 9a c6 3c 5d 80 1b bd 9d d3 26 bd
       -0.007644248 0.024243753 -0.037964214 -0.040729154
000270 4f b9 a5 bc 7d b7 65 3b 32 0b a6 3b 42 73 9d bb
       -0.020229964 0.0035051994 0.0050672526 -0.0048049996
000280 2f d4 57 3b 32 e9 23 3c ba 88 51 3c e8 64 27 3d
       0.0032932868 0.010004329 0.012788946 0.040867716
000290 af 5b 87 bb 55 e9 0b bd 08 47 79 3c 0b e2 ea bc
       -0.0041308026 -0.03415807 0.015214689 -0.028672239
0002a0 21 f4 9c b9 ad 42 52 bc b1 1c 56 3c 54 c9 2b bc
       -0.0002993653 -0.01283328 0.013068364 -0.010485012
0002b0 8e 73 cc 3c 58 fe ab bc 2f 53 1b bc da 22 27 bc
       0.024957445 -0.020995304 -0.009480282 -0.01020118
0002c0 c0 b8 1b 3c c4 3c 09 3a 3d a0 26 3d 8c 4a 8f ba
       0.009504497 0.000523519 0.04068016 -0.0010932251
0002d0 d3 fd d1 3c e8 4d 23 3d d8 ec b4 3b 0b 98 11 3d
       0.025633728 0.03986922 0.005521398 0.03554539
0002e0 19 81 89 bc 30 60 0c bd 4e 93 09 bd 60 60 85 bc
       -0.016785191 -0.03427142 -0.033587746 -0.016281307
0002f0 84 c4 93 bb 40 1d 0d 3c 08 d8 bb 3c 50 12 58 bc
       -0.0045095105 0.008612931 0.02293016 -0.01318796
000300 a9 98 05 bd e2 71 36 bc 16 83 ab bc 9a 1c 6c bc
       -0.03261629 -0.01113555 -0.02093653 -0.014411116
000310 5b fb 0b 3d d0 6c 07 3b a6 01 b4 bb de 7b fc bc
       0.034175258 0.0020664223 -0.0054933606 -0.030820783
000320 ef 6b 45 bc 69 fd 83 bc f7 fe 06 bd 1d 3d 9e 3c
       -0.012049659 -0.016112046 -0.032957997 0.01931625
000330 d2 47 23 bc 2f 49 1c bd 4f 39 d9 3b 78 50 b0 3c
       -0.009965854 -0.03815573 0.006629146 0.021522745
000340 bd dd 48 3c 8b c5 bf 3c 83 93 d0 3c 02 3e 86 3c
       0.012259898 0.023409626 0.025460964 0.01638699
000350 34 70 11 bc 55 ae 2a 3d a1 ab ed 3c 05 5f 1e 3d
       -0.008876849 0.041670162 0.029012503 0.038664836
000360 25 58 6c 3c 7a c1 19 bd 22 37 13 3c 23 b4 0b bd
       0.014425312 -0.03753803 0.008985313 -0.03410734
000370 94 7b de bc 29 9f 89 bb ba a7 49 3c c7 46 4f bb
       -0.027158536 -0.0041998816 0.012308056 -0.003162788
000380 97 dc 06 bc c0 66 11 3d f7 a1 af 3c 5d 91 29 3b
       -0.008231304 0.03549838 0.021439536 0.0025873997
000390 64 61 f8 3c 0d f0 a0 3b f4 61 15 3d c3 e2 fe 3c
       0.030319877 0.004911429 0.03647037 0.031113988
0003a0 bf 73 2a bd ec 64 42 bc cb 7a 03 3d 24 22 11 bd
       -0.04161429 -0.011864882 0.032099526 -0.03543295
0003b0 ad 89 a4 3c 0f 69 66 3b e5 26 69 bb 89 cf 0a 3d
       0.02008518 0.0035157835 -0.0035576161 0.033889327
0003c0 a9 68 38 bc eb ca 23 bd 9f da 17 bd ce 2f 8e bc
       -0.011255422 -0.03998844 -0.037073728 -0.01735678
0003d0 ca a6 22 bc e5 32 6b 3c be c0 2f 3c 99 af bd 3b
       -0.009927461 0.014355396 0.010727106 0.005788755
0003e0 bc 03 01 bd 18 e3 f0 3c 6d c8 d0 3c a4 99 d2 3c
       -0.031497702 0.029405162 0.025486195 0.025708027
0003f0 d3 e7 df bc 2e 95 27 bc 2c de cc 3b 09 0b 87 bc
       -0.027332222 -0.010228438 0.006252071 -0.016484754

head.2.bias f4 [128]
000000 fd 22 14 3d d4 63 6e bc c9 c2 1d bd 97 35 29 bd
       0.03616618 -0.014550168 -0.03851584 -0.041310873
000010 52 24 1e bd 6d d3 f5 3c 2d fa 90 bb 1b 95 d8 3b
       -0.038608856 0.030008042 -0.0044243545 0.0066095716
000020 54 0d c3 bc 83 c0 fb 3b 3a 69 82 bb 11 80 ca 3b
       -0.023810066 0.0076828613 -0.003979829 0.0061798175
000030 97 43 c7 3b e4 6f f6 bb e7 5f 83 3b 8e c8 c9 bc
       0.0060810554 -0.0075206626 0.004009235 -0.024631765
000040 17 1f ad 3c 21 a9 cf 3c 89 e1 21 bd cd 12 fd bc
       0.021132989 0.025349202 -0.039521728 -0.030892754
000050 99 0e 1f 3b 5b 06 00 bd c2 22 a8 3c c9 dc ba bb
       0.0024270175 -0.03125606 0.020524386 -0.005702589
000060 f1 e5 8c 3b 4d ae 45 3c b8 b5 d0 b9 d1 3a cb 3c
       0.004299872 0.012065482 -0.00039808243 0.02480832
000070 d1 88 7a 3c bb b7 87 bc 57 72 f0 bc 40 df 63 bc
       0.015291409 -0.016567102 -0.029351396 -0.013908207
000080 22 8a 97 3c 8a 2d 1c 3c cd 6d 2d bc 73 99 07 bd
       0.018498484 0.009532342 -0.010585261 -0.033105325
000090 31 ea ac 3c b2 62 86 3c d6 a5 95 3c d3 10 15 3d
       0.021107765 0.016404483 0.018267553 0.036392998
0000a0 b2 d2 71 39 81 d6 72 3c c3 3c 68 3c 10 1b 1b 3d
       0.00023062041 0.0148216495 0.014174643 0.037867606
0000b0 cf 73 16 3d 83 ba 17 bd 16 d8 25 bd 78 48 24 bd
       0.036731537 -0.037043106 -0.04048928 -0.040108174
0000c0 17 b4 03 bc ac 16 98 3c 0d b2 06 bc 48 5a 34 bc
       -0.008038542 0.018565498 -0.008221162 -0.011007853
0000d0 d2 02 2d 3c f6 2b 24 bd 67 f2 a7 3c a6 6e 65 3c
       0.010559754 -0.040080987 0.020501329 0.014003431
0000e0 82 e3 2e bb 67 be 12 3d c2 40 05 3d 1f 3c 1f 3d
       -0.0026685898 0.035826113 0.03253246 0.038875695
0000f0 ae 3e 61 ba bb 14 08 3c 0f 55 bc bc a4 4d ab bc
       -0.0008592409 0.008305724 -0.022989778 -0.020911045
000100 fb c0 b7 bc d4 4e 19 3d 2a 6f 09 3b 33 33 23 3d
       -0.022430887 0.037428692 0.00209708 0.03984375
000110 af 28 89 bc f1 b4 9e bb 2f 8f e8 bb 32 f4 be bc
       -0.016743032 -0.0048433472 -0.007097147 -0.0233098
000120 52 1f 8e bb 5e b5 5b bc 4b 97 b1 bc 41 c0 f2 bc
       -0.0043372298 -0.0134099405 -0.021678587 -0.02963269
000130 69 e6 04 bd 1a 5c c5 bc ff c1 dc 3c f5 b4 1b bc
       -0.0324463 -0.024091769 0.026947973 -0.009503593
000140 99 56 a9 bc d6 42 26 bd f8 fb 61 3c ff 9f 02 bd
       -0.020671176 -0.040591083 0.013792984 -0.031890865
000150 d6 eb 9c bb 87 e3 7d 3c 46 0d 35 3c 3f c2 22 bd
       -0.004788856 0.015496141 0.011050528 -0.03973603
000160 04 a3 c7 3c 7b 09 c8 bc 46 69 79 bc df 3f bf 3c
       0.024369724 -0.024418583 -0.015222853 0.023345886
000170 e1 fe a9 3c cc b9 24 3d 60 5d 0e 3d 7f f8 e6 bb
       0.020751419 0.040216252 0.034757018 -0.007048666
000180 f8 f6 bf 3c 7e 33 fc 3b 3c 5d ba bb d4 16 6a 3c
       0.023433194 0.007696568 -0.005687384 0.014287669
000190 6a 3f 82 3c 5a 04 24 bc 24 85 16 bd 75 c7 c2 bc
       0.015899379 -0.010010803 -0.036748067 -0.02377675
0001a0 9c 33 20 3d 52 5d ae bc a7 95 2d 3c 72 e0 06 3d
       0.03911172 -0.021284733 0.010594762 0.03292889
0001b0 15 1f bb bc 0d fe b0 bc e6 c3 af 3c ee 02 0f bd
       -0.02284197 -0.021605516 0.021455716 -0.034914903
0001c0 e4 92 1e 3d fa 32 c0 bc cc 4c f3 3c 5d 1c 85 3c
       0.038714305 -0.023461808 0.029699706 0.016248876
0001d0 c3 03 e9 3c d4 6f 9d 3c c1 61 ab bc 6f 4d 8a 3b
       0.028444177 0.019218363 -0.020920636 0.0042206566
0001e0 a2 10 19 bd 98 a2 8e bc ff 53 e1 3b 8f 2f 1a 3b
       -0.037369378 -0.017411515 0.006876468 0.0023526882
0001f0 39 d1 64 3c 5b 61 01 bd fe 55 13 3c 2b 4b 35 3c
       0.013965898 -0.031586986 0.00899267 0.011065285

fc.weight f4 [2, 512]
000000 dd 7c 13 3b 72 46 24 3d d4 d3 04 3b fe 36 70 3b
       0.0022504844 0.040106244 0.002026786 0.0036653872
000010 f9 27 31 ba e0 fc 22 bd a9 5a 80 3c 2d 85 2b bd
       -0.00067579706 -0.03979194 0.01566823 -0.041875053
000020 c6 06 20 3d e5 df 10 bd 9c 6e 08 3b 02 5d 32 bd
       0.03906896 -0.035369772 0.0020817881 -0.04354573
000030 87 bc 29 bd 79 8c 0e 3d 7b 35 18 3d 7e fc c3 3c
       -0.04143956 0.034801934 0.037160378 0.023924109
000040 96 da d0 bc 84 40 c8 bc 46 d4 30 3d 48 50 c3 bc
       -0.025494855 -0.024444826 0.04317119 -0.023841992
000050 bd a8 b5 bc b5 8d 13 bd 06 03 22 3c 6e 06 d2 bc
       -0.022175187 -0.036023814 0.009888416 -0.025637832
000060 03 b2 18 bd 65 5d 6a bc 91 91 12 bd 89 1a 0c 3d
       -0.03727914 -0.014304494 -0.035783354 0.034204993
000070 68 e9 e6 bc df bf 1c bb 73 62 02 3d 52 f0 33 bd
       -0.028187469 -0.0023918075 0.03183217 -0.04393036
000080 f8 91 92 3c 22 83 14 3d 7b b4 f5 bc a1 dd e7 bc
       0.017891869 0.03625787 -0.029993286 -0.028303923
000090 ac 0a 79 bc 49 d8 1c bd 7d 18 93 bc d3 58 a0 bc
       -0.015200298 -0.038292203 -0.017956013 -0.019573605
0000a0 1c ae 85 bc ff 01 6d 3c 5b 38 04 bc 0c c2 44 3c
       -0.016318373 0.014465808 -0.008070077 0.012009155
0000b0 81 41 ad bb ad 2f 06 ba d8 73 04 3c 50 65 fb 3b
       -0.0052873497 -0.00051187986 0.00808426 0.0076719895
0000c0 62 fc aa 3c e7 61 19 bd a2 91 2e 3d ed c5 e6 3a
       0.020872299 -0.037446883 0.042619355 0.0017606594
0000d0 fe d7 74 3b 3b ff 11 3d ea 4c 68 bc 81 d5 32 bd
       0.0037360187 0.035643797 -0.014178494 -0.043660644
0000e0 a7 9d c2 bb e9 78 27 3d 5b e5 62 bc b2 51 fc bc
       -0.005939204 0.040886793 -0.013848628 -0.030800674
0000f0 99 67 f6 bc bd 0d a1 bb fc 3a 26 3d 53 48 b4 3c
       -0.030078696 -0.004914968 0.040583596 0.022007143
000100 d2 97 af 3c 1d 2f 05 3d ac 79 a7 bb a0 23 2b 3c
       0.021434698 0.032515634 -0.00511094 0.010445505
000110 47 49 98 bc e4 95 96 ba 30 62 13 bd 44 c3 16 bd
       -0.018589629 -0.0011488763 -0.03598231 -0.036807314
000120 d1 2d 8d bc af e4 52 bc 95 a8 a1 bc 76 94 bf 3c
       -0.017233761 -0.012871905 -0.019733706 0.023386221
000130 ec a0 2d 3c 60 3f 94 bc 91 f6 08 3d 55 98 34 3d
       0.010597449 -0.018096626 0.03343827 0.044090588
000140 f4 c0 c5 3c c6 3b e6 3c b8 b7 fe bc cc b4 1b bd
       0.024139859 0.028104674 -0.031093463 -0.03801422
000150 d4 d0 c8 3c 95 4e be bc 75 50 1e bb a3 4c 10 3d
       0.02451364 -0.02323083 -0.0024156843 0.035229336
000160 76 1f 4c 3c 15 4a e5 3c a5 d5 00 3c 0d 1e 1c 3d
       0.012458673 0.027989427 0.007863437 0.038114596
000170 fd 57 fe bc e1 d7 33 bd 21 cc b2 bc f9 41 c8 3b
       -0.031047815 -0.04390705 -0.021825852 0.00611138
000180 a7 fd 1e bd 4c c2 2e 3d 54 47 75 bc 5c 19 3b 3b
       -0.03881612 0.042665765 -0.014970619 0.002854905
000190 2c 7d b0 bc 4e ae 1a bd 0b a7 58 bc 4d a1 e3 3c
       -0.021544062 -0.037763886 -0.01322342 0.027786875
0001a0 91 00 21 bd bd 30 38 3c f8 ba d0 3c ab 51 f2 3b
       -0.03930718 0.011242089 0.025479779 0.0073949895
0001b0 db 07 9c 3c ac dd 3e bc ed 93 ea 3c c1 0f da 3c
       0.019046715 -0.01164953 0.02863499 0.02661884
0001c0 49 bf 42 3c ee 61 82 bc 8b c4 8d 3c ea 99 fe 3c
       0.011886426 -0.015915837 0.017305633 0.031079251
0001d0 4e 8d 4f bc d9 0a d4 3b 49 da 33 bd 2e a5 1e 3d
       -0.012667967 0.0064710197 -0.043909345 0.038731746
0001e0 cf f5 9d 3c 22 ea fe 3c 7b 73 ff 3a 25 87 77 bc
       0.01928225 0.031117503 0.0019489372 -0.015107905
0001f0 42 02 9d bc 3f 0e 93 bb 7d 22 20 3d 88 05 15 bd
       -0.019166116 -0.0044877823 0.03909539 -0.036382228
000200 06 a6 b2 3c f5 d8 25 bd d8 71 5d 3b cd 03 f0 3c
       0.021807682 -0.04049011 0.003378978 0.029298687
000210 81 54 d0 3c 75 53 73 3c db 2a 81 bc 0d da 97 ba
       0.02543092 0.014851441 -0.015767505 -0.001158537
000220 2d ce 33 3b 9a bc a7 3b 88 f7 02 bd 9b 8a 8c 3c
       0.0027436123 0.0051189186 -0.031974345 0.017155936
000230 f1 36 f7 bc cd d2 8a bc 2a c7 62 3c 60 5d 2d bd
       -0.030177565 -0.01694622 0.01384143 -0.042325377
000240 0b 88 d7 bc 6a cf 8c bb 9e 5b de 3b 35 36 2d bd
       -0.026309988 -0.0042971866 0.006785824 -0.042288024
000250 7f 6c f9 3c 41 5f 13 3c c8 f5 0a 3d 47 8e 60 3b
       0.030447243 0.008994878 0.0339258 0.0034264491
000260 15 dc 50 3c f2 5a f0 ba 0b b7 d7 bb b7 11 c6 3c
       0.012747784 -0.0018337651 -0.0065830997 0.024178369
000270 b3 d2 3e bc a5 1d df bc cf 30 ae bc 7c 28 0e bd
       -0.011646914 -0.027235815 -0.021263508 -0.034706578
000280 92 dd 4c bc af a9 1e bd 8a d4 11 3d 90 21 1c bd
       -0.012503998 -0.03873604 0.035603084 -0.038117945
000290 d7 b7 f6 3c 15 81 32 bd 3a 46 f8 3c f1 a0 42 bc
       0.030116959 -0.043580133 0.030306924 -0.011879192
0002a0 a6 9e 76 3c 99 f2 c6 ba 05 70 ad 3a 66 e2 8a 3c
       0.015052473 -0.0015178501 0.0013232237 0.016953658
0002b0 4a ee 15 3d 29 f1 29 3c 97 76 31 3d 36 e7 0f 3d
       0.036604203 0.0103724385 0.043325987 0.03513261
0002c0 a0 4a b8 bc 7f 40 ae bc c4 dc 82 bb dd 93 45 bc
       -0.022496521 -0.021270989 -0.0039936025 -0.012059179
0002d0 6e c1 af bb 5a 54 0b bd 2b 59 af bc ea b4 0b 3d
       -0.005363635 -0.03401599 -0.021404823 0.03410808
0002e0 c5 28 9c 3b 4b 32 04 3d 34 fe 91 3c bc 68 c2 3c
       0.0047656023 0.032274526 0.017821409 0.023731582
0002f0 06 cf c9 bc f8 2d 88 bc bf 5f 3b 3c e9 74 08 bc
       -0.02463485 -0.016623482 0.011436402 -0.008328655
000300 e0 eb 1e bc ca 35 fd 3a b6 b2 14 bd 75 a9 08 bd
       -0.009699792 0.0019318399 -0.036303245 -0.03336473
000310 a6 6c dd bb 4f 95 9b 3c a4 9c 31 bd 1c ea 2a 3d
       -0.0067573367 0.018992094 -0.043362275 0.04172717
000320 7c 35 3b bc 07 a0 b3 bc 8e 6e b0 3c 88 13 f7 bc
       -0.011426326 -0.021926893 0.021537092 -0.03016068
000330 48 26 c4 bc 91 a2 30 bc 08 3e 82 bc 85 c0 09 3d
       -0.023944035 -0.010780946 -0.01589872 0.033630867
000340 2c a6 2f bd 4a a7 d7 3c e7 6b b4 3c 04 7a bf bb
       -0.042883083 0.026324887 0.022024108 -0.005843403
000350 60 69 09 3d 3d a1 c2 3c 0e d5 1e 3d 60 22 f9 b9
       0.03354776 0.023758525 0.038777404 -0.00047518592
000360 b8 bc 82 bc db 8a f3 3c 0b 2c 45 bc b2 ad f0 bc
       -0.015959129 0.029729297 -0.012034426 -0.0293797
000370 ce 8c 20 bd 27 63 f4 3c 5c 71 ae bc 61 b5 c9 3c
       -0.03919678 0.029832436 -0.021294288 0.024622621
000380 9b 7b 82 3c 34 19 2f bd c7 0c 28 bb 9d 5f 4c bc
       0.01592808 -0.042748645 -0.0025642382 -0.012473968
000390 8e 3d 0e 3d 9b 98 d0 bb 1c 44 8c 3c 91 d8 0f 3d
       0.034726672 -0.0063658482 0.01712232 0.035118643
0003a0 fa 06 98 bc 57 8a 7d 3a 6b 05 e3 bc 14 84 ce 3b
       -0.018558014 0.00096717983 -0.027712544 0.006302366
0003b0 ad e0 34 bd df 12 03 3c 2b 0d 2e 3c ed 6c 2e 3d
       -0.04415958 0.008000105 0.010623257 0.04258435
0003c0 73 99 27 3d e3 49 d3 3c d5 29 ed bc 8b bd 99 bb
       0.040917825 0.025792068 -0.028950611 -0.0046917847
0003d0 da d1 73 3c 76 4f 96 3c 35 bb e3 bc c9 1e 1d bd
       0.0148815755 0.018348437 -0.027799228 -0.038359437
0003e0 ea 20 3f bc 18 f0 06 3d c0 d8 25 bd 4d c9 13 3d
       -0.011665562 0.032943815 -0.040489912 0.036080647
0003f0 25 9f ac bc d0 b4 08 bd ff 67 0b 3d ff c5 ae 3c
       -0.02107198 -0.03337556 0.034034725 0.021334646

fc.bias f4 [2]
000000 b4 79 df bc 25 26 2c 3d
       -0.027279712 0.042028565
